Detection weights: ./modified_weights.pth
Is GPU available: True
DataParallel(
  (module): fh02(
    (wR2): DataParallel(
      (module): wR2(
        (features): Sequential(
          (0): Sequential(
            (0): Conv2d(3, 48, kernel_size=(5, 5), stride=(2, 2), padding=(2, 2))
            (1): BatchNorm2d(48, eps=1e-05, momentum=0.1, affine=True, track_running_stats=True)
            (2): ReLU()
            (3): MaxPool2d(kernel_size=2, stride=2, padding=1, dilation=1, ceil_mode=False)
            (4): Dropout(p=0.2)
          )
          (1): Sequential(
            (0): Conv2d(48, 64, kernel_size=(5, 5), stride=(1, 1), padding=(2, 2))
            (1): BatchNorm2d(64, eps=1e-05, momentum=0.1, affine=True, track_running_stats=True)
            (2): ReLU()
            (3): MaxPool2d(kernel_size=2, stride=1, padding=1, dilation=1, ceil_mode=False)
            (4): Dropout(p=0.2)
          )
          (2): Sequential(
            (0): Conv2d(64, 128, kernel_size=(5, 5), stride=(1, 1), padding=(2, 2))
            (1): BatchNorm2d(128, eps=1e-05, momentum=0.1, affine=True, track_running_stats=True)
            (2): ReLU()
            (3): MaxPool2d(kernel_size=2, stride=2, padding=1, dilation=1, ceil_mode=False)
            (4): Dropout(p=0.2)
          )
          (3): Sequential(
            (0): Conv2d(128, 160, kernel_size=(5, 5), stride=(1, 1), padding=(2, 2))
            (1): BatchNorm2d(160, eps=1e-05, momentum=0.1, affine=True, track_running_stats=True)
            (2): ReLU()
            (3): MaxPool2d(kernel_size=2, stride=1, padding=1, dilation=1, ceil_mode=False)
            (4): Dropout(p=0.2)
          )
          (4): Sequential(
            (0): Conv2d(160, 192, kernel_size=(5, 5), stride=(1, 1), padding=(2, 2))
            (1): BatchNorm2d(192, eps=1e-05, momentum=0.1, affine=True, track_running_stats=True)
            (2): ReLU()
            (3): MaxPool2d(kernel_size=2, stride=2, padding=1, dilation=1, ceil_mode=False)
            (4): Dropout(p=0.2)
          )
          (5): Sequential(
            (0): Conv2d(192, 192, kernel_size=(5, 5), stride=(1, 1), padding=(2, 2))
            (1): BatchNorm2d(192, eps=1e-05, momentum=0.1, affine=True, track_running_stats=True)
            (2): ReLU()
            (3): MaxPool2d(kernel_size=2, stride=1, padding=1, dilation=1, ceil_mode=False)
            (4): Dropout(p=0.2)
          )
          (6): Sequential(
            (0): Conv2d(192, 192, kernel_size=(5, 5), stride=(1, 1), padding=(2, 2))
            (1): BatchNorm2d(192, eps=1e-05, momentum=0.1, affine=True, track_running_stats=True)
            (2): ReLU()
            (3): MaxPool2d(kernel_size=2, stride=2, padding=1, dilation=1, ceil_mode=False)
            (4): Dropout(p=0.2)
          )
          (7): Sequential(
            (0): Conv2d(192, 192, kernel_size=(5, 5), stride=(1, 1), padding=(2, 2))
            (1): BatchNorm2d(192, eps=1e-05, momentum=0.1, affine=True, track_running_stats=True)
            (2): ReLU()
            (3): MaxPool2d(kernel_size=2, stride=1, padding=1, dilation=1, ceil_mode=False)
            (4): Dropout(p=0.2)
          )
          (8): Sequential(
            (0): Conv2d(192, 192, kernel_size=(3, 3), stride=(1, 1), padding=(1, 1))
            (1): BatchNorm2d(192, eps=1e-05, momentum=0.1, affine=True, track_running_stats=True)
            (2): ReLU()
            (3): MaxPool2d(kernel_size=2, stride=2, padding=1, dilation=1, ceil_mode=False)
            (4): Dropout(p=0.2)
          )
          (9): Sequential(
            (0): Conv2d(192, 192, kernel_size=(3, 3), stride=(1, 1), padding=(1, 1))
            (1): BatchNorm2d(192, eps=1e-05, momentum=0.1, affine=True, track_running_stats=True)
            (2): ReLU()
            (3): MaxPool2d(kernel_size=2, stride=1, padding=1, dilation=1, ceil_mode=False)
            (4): Dropout(p=0.2)
          )
        )
        (classifier): Sequential(
          (0): Linear(in_features=23232, out_features=100, bias=True)
          (1): Linear(in_features=100, out_features=100, bias=True)
          (2): Linear(in_features=100, out_features=4, bias=True)
        )
      )
    )
    (rnn): Sequential(
      (0): BidirectionalLSTM(
        (rnn): LSTM(416, 256, batch_first=True, bidirectional=True)
        (embedding): Linear(in_features=512, out_features=256, bias=True)
      )
      (1): BidirectionalLSTM(
        (rnn): LSTM(256, 256, batch_first=True, bidirectional=True)
        (embedding): Linear(in_features=512, out_features=69, bias=True)
      )
    )
  )
)
Total number of training images: 166434
Trained 128 images, use 18.30404233932495 seconds, Average loss 71.07364654541016

Trained 12928 images, use 148.52713012695312 seconds, Average loss 6.271899900814094

Trained 25728 images, use 260.4729833602905 seconds, Average loss 4.715643815140226

Trained 38528 images, use 368.8678195476532 seconds, Average loss 4.046652048529184
…
